…
    no_cb: 5
    in_nc: 3
    out_nc: 3
    gc: 32
    group: 1
    scale: 4
  ]
  is_train: False

23-03-20 09:37:10.972 - INFO: Dataset [LRDataset - set5] is created.
23-03-20 09:37:10.972 - INFO: Number of test images in [set5]: 100
23-03-20 09:37:13.279 - INFO: Loading pretrained model for G [/media/ml/Data Disk/NTIRE2023/SISR/try_1_elu/experiments/try_1_elu_pretrain/models/98000_G.pth] ...
23-03-20 09:37:13.364 - INFO: Network G structure: DataParallel - ProposedNetwork, with parameters: 14,615,839
23-03-20 09:37:13.365 - INFO: ProposedNetwork(
  (model): MyNetwork(
    (k5): Sequential(
      (0): Conv2d(3, 64, kernel_size=(5, 5), stride=(1, 1), padding=(2, 2))
      (1): ELU(alpha=1.0)
    )
    (cb): CB(
      (fwd_bb): ModuleList(
        (0): BB(
          (uk3_1): Sequential(
            (0): Conv2d(64, 64, kernel_size=(3, 3), stride=(1, 1), padding=(1, 1))
            (1): ELU(alpha=1.0)
          )
          (uk3_2): Sequential(
            (0): Conv2d(128, 64, kernel_size=(3, 3), stride=(1, 1), padding=(1, 1))
            (1): ELU(alpha=1.0)
          )
          (uk3_3): Sequential(
            (0): Conv2d(192, 64, kernel_size=(3, 3), stride=(1, 1), padding=(1, 1))
            (1): ELU(alpha=1.0)
          )
          (lk3_1): Sequential(
            (0): Conv2d(64, 64, kernel_size=(3, 3), stride=(1, 1), padding=(1, 1))
            (1): ELU(alpha=1.0)
          )
          (lk3_2): Sequential(
            (0): Conv2d(64, 64, kernel_size=(3, 3), stride=(1, 1), padding=(1, 1))
            (1): ELU(alpha=1.0)
          )
          (lk3_3): Sequential(
            (0): Conv2d(64, 64, kernel_size=(3, 3), stride=(1, 1), padding=(1, 1))
            (1): ELU(alpha=1.0)
          )
          (k1): Sequential(
            (0): Conv2d(256, 64, kernel_size=(1, 1), stride=(1, 1))
            (1): ELU(alpha=1.0)
          )
          (emha): EMHA(
            (reduction): Conv1d(576, 288, kernel_size=(1,), stride=(1,))
            (attend): Softmax(dim=-1)
            (toQKV): Linear(in_features=288, out_features=864, bias=False)
            (expansion): Conv1d(288, 576, kernel_size=(1,), stride=(1,))
          )
          (norm): LayerNorm((576,), eps=1e-05, elementwise_affine=True)
          (unFold): Unfold(kernel_size=(3, 3), dilation=1, padding=1, stride=1)
        )
        (1): BB(
          (uk3_1): Sequential(
            (0): Conv2d(64, 64, kernel_size=(3, 3), stride=(1, 1), padding=(1, 1))
            (1): ELU(alpha=1.0)
          )
          (uk3_2): Sequential(
            (0): Conv2d(128, 64, kernel_size=(3, 3), stride=(1, 1), padding=(1, 1))
            (1): ELU(alpha=1.0)
          )
          (uk3_3): Sequential(
            (0): Conv2d(192, 64, kernel_size=(3, 3), stride=(1, 1), padding=(1, 1))
            (1): ELU(alpha=1.0)
          )
          (lk3_1): Sequential(
            (0): Conv2d(64, 64, kernel_size=(3, 3), stride=(1, 1), padding=(1, 1))
            (1): ELU(alpha=1.0)
          )
          (lk3_2): Sequential(
            (0): Conv2d(64, 64, kernel_size=(3, 3), stride=(1, 1), padding=(1, 1))
            (1): ELU(alpha=1.0)
          )
          (lk3_3): Sequential(
            (0): Conv2d(64, 64, kernel_size=(3, 3), stride=(1, 1), padding=(1, 1))
            (1): ELU(alpha=1.0)
          )
          (k1): Sequential(
            (0): Conv2d(256, 64, kernel_size=(1, 1), stride=(1, 1))
            (1): ELU(alpha=1.0)
          )
          (emha): EMHA(
            (reduction): Conv1d(576, 288, kernel_size=(1,), stride=(1,))
            (attend): Softmax(dim=-1)
            (toQKV): Linear(in_features=288, out_features=864, bias=False)
            (expansion): Conv1d(288, 576, kernel_size=(1,), stride=(1,))
          )
          (norm): LayerNorm((576,), eps=1e-05, elementwise_affine=True)
          (unFold): Unfold(kernel_size=(3, 3), dilation=1, padding=1, stride=1)
        )
        (2): BB(
          (uk3_1): Sequential(
            (0): Conv2d(64, 64, kernel_size=(3, 3), stride=(1, 1), padding=(1, 1))
            (1): ELU(alpha=1.0)
          )
          (uk3_2): Sequential(
            (0): Conv2d(128, 64, kernel_size=(3, 3), stride=(1, 1), padding=(1, 1))
            (1): ELU(alpha=1.0)
          )
          (uk3_3): Sequential(
            (0): Conv2d(192, 64, kernel_size=(3, 3), stride=(1, 1), padding=(1, 1))
            (1): ELU(alpha=1.0)
          )
          (lk3_1): Sequential(
            (0): Conv2d(64, 64, kernel_size=(3, 3), stride=(1, 1), padding=(1, 1))
            (1): ELU(alpha=1.0)
          )
          (lk3_2): Sequential(
            (0): Conv2d(64, 64, kernel_size=(3, 3), stride=(1, 1), padding=(1, 1))
            (1): ELU(alpha=1.0)
          )
          (lk3_3): Sequential(
            (0): Conv2d(64, 64, kernel_size=(3, 3), stride=(1, 1), padding=(1, 1))
            (1): ELU(alpha=1.0)
          )
          (k1): Sequential(
            (0): Conv2d(256, 64, kernel_size=(1, 1), stride=(1, 1))
            (1): ELU(alpha=1.0)
          )
          (emha): EMHA(
            (reduction): Conv1d(576, 288, kernel_size=(1,), stride=(1,))
            (attend): Softmax(dim=-1)
            (toQKV): Linear(in_features=288, out_features=864, bias=False)
            (expansion): Conv1d(288, 576, kernel_size=(1,), stride=(1,))
          )
          (norm): LayerNorm((576,), eps=1e-05, elementwise_affine=True)
          (unFold): Unfold(kernel_size=(3, 3), dilation=1, padding=1, stride=1)
        )
      )
      (fwd_cam): ModuleList(
        (0): CAM(
          (global_avg_pool): AdaptiveAvgPool2d(output_size=1)
          (fc1): Linear(in_features=64, out_features=4, bias=True)
          (fc2): Linear(in_features=4, out_features=64, bias=True)
        )
        (1): CAM(
          (global_avg_pool): AdaptiveAvgPool2d(output_size=1)
          (fc1): Linear(in_features=64, out_features=4, bias=True)
          (fc2): Linear(in_features=4, out_features=64, bias=True)
        )
        (2): CAM(
          (global_avg_pool): AdaptiveAvgPool2d(output_size=1)
          (fc1): Linear(in_features=64, out_features=4, bias=True)
          (fc2): Linear(in_features=4, out_features=64, bias=True)
        )
      )
    )
    (fwd_cb): ModuleList(
      (0): CB(
        (fwd_bb): ModuleList(
          (0): BB(
            (uk3_1): Sequential(
              (0): Conv2d(64, 64, kernel_size=(3, 3), stride=(1, 1), padding=(1, 1))
              (1): ELU(alpha=1.0)
            )
            (uk3_2): Sequential(
              (0): Conv2d(128, 64, kernel_size=(3, 3), stride=(1, 1), padding=(1, 1))
              (1): ELU(alpha=1.0)
            )
            (uk3_3): Sequential(
              (0): Conv2d(192, 64, kernel_size=(3, 3), stride=(1, 1), padding=(1, 1))
              (1): ELU(alpha=1.0)
            )
            (lk3_1): Sequential(
              (0): Conv2d(64, 64, kernel_size=(3, 3), stride=(1, 1), padding=(1, 1))
              (1): ELU(alpha=1.0)
            )
            (lk3_2): Sequential(
              (0): Conv2d(64, 64, kernel_size=(3, 3), stride=(1, 1), padding=(1, 1))
              (1): ELU(alpha=1.0)
            )
            (lk3_3): Sequential(
              (0): Conv2d(64, 64, kernel_size=(3, 3), stride=(1, 1), padding=(1, 1))
              (1): ELU(alpha=1.0)
            )
            (k1): Sequential(
              (0): Conv2d(256, 64, kernel_size=(1, 1), stride=(1, 1))
              (1): ELU(alpha=1.0)
            )
            (emha): EMHA(
              (reduction): Conv1d(576, 288, kernel_size=(1,), stride=(1,))
              (attend): Softmax(dim=-1)
              (toQKV): Linear(in_features=288, out_features=864, bias=False)
              (expansion): Conv1d(288, 576, kernel_size=(1,), stride=(1,))
            )
            (norm): LayerNorm((576,), eps=1e-05, elementwise_affine=True)
            (unFold): Unfold(kernel_size=(3, 3), dilation=1, padding=1, stride=1)
          )
          (1): BB(
            (uk3_1): Sequential(
              (0): Conv2d(64, 64, kernel_size=(3, 3), stride=(1, 1), padding=(1, 1))
              (1): ELU(alpha=1.0)
            )
            (uk3_2): Sequential(
              (0): Conv2d(128, 64, kernel_size=(3, 3), stride=(1, 1), padding=(1, 1))
              (1): ELU(alpha=1.0)
            )
            (uk3_3): Sequential(
              (0): Conv2d(192, 64, kernel_size=(3, 3), stride=(1, 1), padding=(1, 1))
              (1): ELU(alpha=1.0)
            )
            (lk3_1): Sequential(
              (0): Conv2d(64, 64, kernel_size=(3, 3), stride=(1, 1), padding=(1, 1))
              (1): ELU(alpha=1.0)
            )
            (lk3_2): Sequential(
              (0): Conv2d(64, 64, kernel_size=(3, 3), stride=(1, 1), padding=(1, 1))
              (1): ELU(alpha=1.0)
            )
            (lk3_3): Sequential(
              (0): Conv2d(64, 64, kernel_size=(3, 3), stride=(1, 1), padding=(1, 1))
              (1): ELU(alpha=1.0)
            )
            (k1): Sequential(
              (0): Conv2d(256, 64, kernel_size=(1, 1), stride=(1, 1))
              (1): ELU(alpha=1.0)
            )
            (emha): EMHA(
              (reduction): Conv1d(576, 288, kernel_size=(1,), stride=(1,))
              (attend): Softmax(dim=-1)
              (toQKV): Linear(in_features=288, out_features=864, bias=False)
              (expansion): Conv1d(288, 576, kernel_size=(1,), stride=(1,))
            )
            (norm): LayerNorm((576,), eps=1e-05, elementwise_affine=True)
            (unFold): Unfold(kernel_size=(3, 3), dilation=1, padding=1, stride=1)
          )
          (2): BB(
            (uk3_1): Sequential(
              (0): Conv2d(64, 64, kernel_size=(3, 3), stride=(1, 1), padding=(1, 1))
              (1): ELU(alpha=1.0)
            )
            (uk3_2): Sequential(
              (0): Conv2d(128, 64, kernel_size=(3, 3), stride=(1, 1), padding=(1, 1))
              (1): ELU(alpha=1.0)
            )
            (uk3_3): Sequential(
              (0): Conv2d(192, 64, kernel_size=(3, 3), stride=(1, 1), padding=(1, 1))
              (1): ELU(alpha=1.0)
            )
            (lk3_1): Sequential(
              (0): Conv2d(64, 64, kernel_size=(3, 3), stride=(1, 1), padding=(1, 1))
              (1): ELU(alpha=1.0)
            )
            (lk3_2): Sequential(
              (0): Conv2d(64, 64, kernel_size=(3, 3), stride=(1, 1), padding=(1, 1))
              (1): ELU(alpha=1.0)
            )
            (lk3_3): Sequential(
              (0): Conv2d(64, 64, kernel_size=(3, 3), stride=(1, 1), padding=(1, 1))
              (1): ELU(alpha=1.0)
            )
            (k1): Sequential(
              (0): Conv2d(256, 64, kernel_size=(1, 1), stride=(1, 1))
              (1): ELU(alpha=1.0)
            )
            (emha): EMHA(
              (reduction): Conv1d(576, 288, kernel_size=(1,), stride=(1,))
              (attend): Softmax(dim=-1)
              (toQKV): Linear(in_features=288, out_features=864, bias=False)
              (expansion): Conv1d(288, 576, kernel_size=(1,), stride=(1,))
            )
            (norm): LayerNorm((576,), eps=1e-05, elementwise_affine=True)
            (unFold): Unfold(kernel_size=(3, 3), dilation=1, padding=1, stride=1)
          )
        )
        (fwd_cam): ModuleList(
          (0): CAM(
            (global_avg_pool): AdaptiveAvgPool2d(output_size=1)
            (fc1): Linear(in_features=64, out_features=4, bias=True)
            (fc2): Linear(in_features=4, out_features=64, bias=True)
          )
          (1): CAM(
            (global_avg_pool): AdaptiveAvgPool2d(output_size=1)
            (fc1): Linear(in_features=64, out_features=4, bias=True)
            (fc2): Linear(in_features=4, out_features=64, bias=True)
          )
          (2): CAM(
            (global_avg_pool): AdaptiveAvgPool2d(output_size=1)
            (fc1): Linear(in_features=64, out_features=4, bias=True)
            (fc2): Linear(in_features=4, out_features=64, bias=True)
          )
        )
      )
      (1): CB(
        (fwd_bb): ModuleList(
          (0): BB(
            (uk3_1): Sequential(
              (0): Conv2d(64, 64, kernel_size=(3, 3), stride=(1, 1), padding=(1, 1))
              (1): ELU(alpha=1.0)
            )
            (uk3_2): Sequential(
              (0): Conv2d(128, 64, kernel_size=(3, 3), stride=(1, 1), padding=(1, 1))
              (1): ELU(alpha=1.0)
            )
            (uk3_3): Sequential(
              (0): Conv2d(192, 64, kernel_size=(3, 3), stride=(1, 1), padding=(1, 1))
              (1): ELU(alpha=1.0)
            )
            (lk3_1): Sequential(
              (0): Conv2d(64, 64, kernel_size=(3, 3), stride=(1, 1), padding=(1, 1))
              (1): ELU(alpha=1.0)
            )
            (lk3_2): Sequential(
              (0): Conv2d(64, 64, kernel_size=(3, 3), stride=(1, 1), padding=(1, 1))
              (1): ELU(alpha=1.0)
            )
            (lk3_3): Sequential(
              (0): Conv2d(64, 64, kernel_size=(3, 3), stride=(1, 1), padding=(1, 1))
              (1): ELU(alpha=1.0)
            )
            (k1): Sequential(
              (0): Conv2d(256, 64, kernel_size=(1, 1), stride=(1, 1))
              (1): ELU(alpha=1.0)
            )
            (emha): EMHA(
              (reduction): Conv1d(576, 288, kernel_size=(1,), stride=(1,))
              (attend): Softmax(dim=-1)
              (toQKV): Linear(in_features=288, out_features=864, bias=False)
              (expansion): Conv1d(288, 576, kernel_size=(1,), stride=(1,))
            )
            (norm): LayerNorm((576,), eps=1e-05, elementwise_affine=True)
            (unFold): Unfold(kernel_size=(3, 3), dilation=1, padding=1, stride=1)
          )
          (1): BB(
            (uk3_1): Sequential(
              (0): Conv2d(64, 64, kernel_size=(3, 3), stride=(1, 1), padding=(1, 1))
              (1): ELU(alpha=1.0)
            )
            (uk3_2): Sequential(
              (0): Conv2d(128, 64, kernel_size=(3, 3), stride=(1, 1), padding=(1, 1))
              (1): ELU(alpha=1.0)
            )
            (uk3_3): Sequential(
              (0): Conv2d(192, 64, kernel_size=(3, 3), stride=(1, 1), padding=(1, 1))
              (1): ELU(alpha=1.0)
            )
            (lk3_1): Sequential(
              (0): Conv2d(64, 64, kernel_size=(3, 3), stride=(1, 1), padding=(1, 1))
              (1): ELU(alpha=1.0)
            )
            (lk3_2): Sequential(
              (0): Conv2d(64, 64, kernel_size=(3, 3), stride=(1, 1), padding=(1, 1))
              (1): ELU(alpha=1.0)
            )
            (lk3_3): Sequential(
              (0): Conv2d(64, 64, kernel_size=(3, 3), stride=(1, 1), padding=(1, 1))
              (1): ELU(alpha=1.0)
            )
            (k1): Sequential(
              (0): Conv2d(256, 64, kernel_size=(1, 1), stride=(1, 1))
              (1): ELU(alpha=1.0)
            )
            (emha): EMHA(
              (reduction): Conv1d(576, 288, kernel_size=(1,), stride=(1,))
              (attend): Softmax(dim=-1)
              (toQKV): Linear(in_features=288, out_features=864, bias=False)
              (expansion): Conv1d(288, 576, kernel_size=(1,), stride=(1,))
            )
            (norm): LayerNorm((576,), eps=1e-05, elementwise_affine=True)
            (unFold): Unfold(kernel_size=(3, 3), dilation=1, padding=1, stride=1)
          )
          (2): BB(
            (uk3_1): Sequential(
              (0): Conv2d(64, 64, kernel_size=(3, 3), stride=(1, 1), padding=(1, 1))
              (1): ELU(alpha=1.0)
            )
            (uk3_2): Sequential(
              (0): Conv2d(128, 64, kernel_size=(3, 3), stride=(1, 1), padding=(1, 1))
              (1): ELU(alpha=1.0)
            )
            (uk3_3): Sequential(
              (0): Conv2d(192, 64, kernel_size=(3, 3), stride=(1, 1), padding=(1, 1))
              (1): ELU(alpha=1.0)
            )
            (lk3_1): Sequential(
              (0): Conv2d(64, 64, kernel_size=(3, 3), stride=(1, 1), padding=(1, 1))
              (1): ELU(alpha=1.0)
            )
            (lk3_2): Sequential(
              (0): Conv2d(64, 64, kernel_size=(3, 3), stride=(1, 1), padding=(1, 1))
              (1): ELU(alpha=1.0)
            )
            (lk3_3): Sequential(
              (0): Conv2d(64, 64, kernel_size=(3, 3), stride=(1, 1), padding=(1, 1))
              (1): ELU(alpha=1.0)
            )
            (k1): Sequential(
              (0): Conv2d(256, 64, kernel_size=(1, 1), stride=(1, 1))
              (1): ELU(alpha=1.0)
            )
            (emha): EMHA(
              (reduction): Conv1d(576, 288, kernel_size=(1,), stride=(1,))
              (attend): Softmax(dim=-1)
              (toQKV): Linear(in_features=288, out_features=864, bias=False)
              (expansion): Conv1d(288, 576, kernel_size=(1,), stride=(1,))
            )
            (norm): LayerNorm((576,), eps=1e-05, elementwise_affine=True)
            (unFold): Unfold(kernel_size=(3, 3), dilation=1, padding=1, stride=1)
          )
        )
        (fwd_cam): ModuleList(
          (0): CAM(
            (global_avg_pool): AdaptiveAvgPool2d(output_size=1)
            (fc1): Linear(in_features=64, out_features=4, bias=True)
            (fc2): Linear(in_features=4, out_features=64, bias=True)
          )
          (1): CAM(
            (global_avg_pool): AdaptiveAvgPool2d(output_size=1)
            (fc1): Linear(in_features=64, out_features=4, bias=True)
            (fc2): Linear(in_features=4, out_features=64, bias=True)
          )
          (2): CAM(
            (global_avg_pool): AdaptiveAvgPool2d(output_size=1)
            (fc1): Linear(in_features=64, out_features=4, bias=True)
            (fc2): Linear(in_features=4, out_features=64, bias=True)
          )
        )
      )
      (2): CB(
        (fwd_bb): ModuleList(
          (0): BB(
            (uk3_1): Sequential(
              (0): Conv2d(64, 64, kernel_size=(3, 3), stride=(1, 1), padding=(1, 1))
              (1): ELU(alpha=1.0)
            )
            (uk3_2): Sequential(
              (0): Conv2d(128, 64, kernel_size=(3, 3), stride=(1, 1), padding=(1, 1))
              (1): ELU(alpha=1.0)
            )
            (uk3_3): Sequential(
              (0): Conv2d(192, 64, kernel_size=(3, 3), stride=(1, 1), padding=(1, 1))
              (1): ELU(alpha=1.0)
            )
            (lk3_1): Sequential(
              (0): Conv2d(64, 64, kernel_size=(3, 3), stride=(1, 1), padding=(1, 1))
              (1): ELU(alpha=1.0)
            )
            (lk3_2): Sequential(
              (0): Conv2d(64, 64, kernel_size=(3, 3), stride=(1, 1), padding=(1, 1))
              (1): ELU(alpha=1.0)
            )
            (lk3_3): Sequential(
              (0): Conv2d(64, 64, kernel_size=(3, 3), stride=(1, 1), padding=(1, 1))
              (1): ELU(alpha=1.0)
            )
            (k1): Sequential(
              (0): Conv2d(256, 64, kernel_size=(1, 1), stride=(1, 1))
              (1): ELU(alpha=1.0)
            )
            (emha): EMHA(
              (reduction): Conv1d(576, 288, kernel_size=(1,), stride=(1,))
              (attend): Softmax(dim=-1)
              (toQKV): Linear(in_features=288, out_features=864, bias=False)
              (expansion): Conv1d(288, 576, kernel_size=(1,), stride=(1,))
            )
            (norm): LayerNorm((576,), eps=1e-05, elementwise_affine=True)
            (unFold): Unfold(kernel_size=(3, 3), dilation=1, padding=1, stride=1)
          )
          (1): BB(
            (uk3_1): Sequential(
              (0): Conv2d(64, 64, kernel_size=(3, 3), stride=(1, 1), padding=(1, 1))
              (1): ELU(alpha=1.0)
            )
            (uk3_2): Sequential(
              (0): Conv2d(128, 64, kernel_size=(3, 3), stride=(1, 1), padding=(1, 1))
              (1): ELU(alpha=1.0)
            )
            (uk3_3): Sequential(
              (0): Conv2d(192, 64, kernel_size=(3, 3), stride=(1, 1), padding=(1, 1))
              (1): ELU(alpha=1.0)
            )
            (lk3_1): Sequential(
              (0): Conv2d(64, 64, kernel_size=(3, 3), stride=(1, 1), padding=(1, 1))
              (1): ELU(alpha=1.0)
            )
            (lk3_2): Sequential(
              (0): Conv2d(64, 64, kernel_size=(3, 3), stride=(1, 1), padding=(1, 1))
              (1): ELU(alpha=1.0)
            )
            (lk3_3): Sequential(
              (0): Conv2d(64, 64, kernel_size=(3, 3), stride=(1, 1), padding=(1, 1))
              (1): ELU(alpha=1.0)
            )
            (k1): Sequential(
              (0): Conv2d(256, 64, kernel_size=(1, 1), stride=(1, 1))
              (1): ELU(alpha=1.0)
            )
            (emha): EMHA(
              (reduction): Conv1d(576, 288, kernel_size=(1,), stride=(1,))
              (attend): Softmax(dim=-1)
              (toQKV): Linear(in_features=288, out_features=864, bias=False)
              (expansion): Conv1d(288, 576, kernel_size=(1,), stride=(1,))
            )
            (norm): LayerNorm((576,), eps=1e-05, elementwise_affine=True)
            (unFold): Unfold(kernel_size=(3, 3), dilation=1, padding=1, stride=1)
          )
          (2): BB(
            (uk3_1): Sequential(
              (0): Conv2d(64, 64, kernel_size=(3, 3), stride=(1, 1), padding=(1, 1))
              (1): ELU(alpha=1.0)
            )
            (uk3_2): Sequential(
              (0): Conv2d(128, 64, kernel_size=(3, 3), stride=(1, 1), padding=(1, 1))
              (1): ELU(alpha=1.0)
            )
            (uk3_3): Sequential(
              (0): Conv2d(192, 64, kernel_size=(3, 3), stride=(1, 1), padding=(1, 1))
              (1): ELU(alpha=1.0)
            )
            (lk3_1): Sequential(
              (0): Conv2d(64, 64, kernel_size=(3, 3), stride=(1, 1), padding=(1, 1))
              (1): ELU(alpha=1.0)
            )
            (lk3_2): Sequential(
              (0): Conv2d(64, 64, kernel_size=(3, 3), stride=(1, 1), padding=(1, 1))
              (1): ELU(alpha=1.0)
            )
            (lk3_3): Sequential(
              (0): Conv2d(64, 64, kernel_size=(3, 3), stride=(1, 1), padding=(1, 1))
              (1): ELU(alpha=1.0)
            )
            (k1): Sequential(
              (0): Conv2d(256, 64, kernel_size=(1, 1), stride=(1, 1))
              (1): ELU(alpha=1.0)
            )
            (emha): EMHA(
              (reduction): Conv1d(576, 288, kernel_size=(1,), stride=(1,))
              (attend): Softmax(dim=-1)
              (toQKV): Linear(in_features=288, out_features=864, bias=False)
              (expansion): Conv1d(288, 576, kernel_size=(1,), stride=(1,))
            )
            (norm): LayerNorm((576,), eps=1e-05, elementwise_affine=True)
            (unFold): Unfold(kernel_size=(3, 3), dilation=1, padding=1, stride=1)
          )
        )
        (fwd_cam): ModuleList(
          (0): CAM(
            (global_avg_pool): AdaptiveAvgPool2d(output_size=1)
            (fc1): Linear(in_features=64, out_features=4, bias=True)
            (fc2): Linear(in_features=4, out_features=64, bias=True)
          )
          (1): CAM(
            (global_avg_pool): AdaptiveAvgPool2d(output_size=1)
            (fc1): Linear(in_features=64, out_features=4, bias=True)
            (fc2): Linear(in_features=4, out_features=64, bias=True)
          )
          (2): CAM(
            (global_avg_pool): AdaptiveAvgPool2d(output_size=1)
            (fc1): Linear(in_features=64, out_features=4, bias=True)
            (fc2): Linear(in_features=4, out_features=64, bias=True)
          )
        )
      )
      (3): CB(
        (fwd_bb): ModuleList(
          (0): BB(
            (uk3_1): Sequential(
              (0): Conv2d(64, 64, kernel_size=(3, 3), stride=(1, 1), padding=(1, 1))
              (1): ELU(alpha=1.0)
            )
            (uk3_2): Sequential(
              (0): Conv2d(128, 64, kernel_size=(3, 3), stride=(1, 1), padding=(1, 1))
              (1): ELU(alpha=1.0)
            )
            (uk3_3): Sequential(
              (0): Conv2d(192, 64, kernel_size=(3, 3), stride=(1, 1), padding=(1, 1))
              (1): ELU(alpha=1.0)
            )
            (lk3_1): Sequential(
              (0): Conv2d(64, 64, kernel_size=(3, 3), stride=(1, 1), padding=(1, 1))
              (1): ELU(alpha=1.0)
            )
            (lk3_2): Sequential(
              (0): Conv2d(64, 64, kernel_size=(3, 3), stride=(1, 1), padding=(1, 1))
              (1): ELU(alpha=1.0)
            )
            (lk3_3): Sequential(
              (0): Conv2d(64, 64, kernel_size=(3, 3), stride=(1, 1), padding=(1, 1))
              (1): ELU(alpha=1.0)
            )
            (k1): Sequential(
              (0): Conv2d(256, 64, kernel_size=(1, 1), stride=(1, 1))
              (1): ELU(alpha=1.0)
            )
            (emha): EMHA(
              (reduction): Conv1d(576, 288, kernel_size=(1,), stride=(1,))
              (attend): Softmax(dim=-1)
              (toQKV): Linear(in_features=288, out_features=864, bias=False)
              (expansion): Conv1d(288, 576, kernel_size=(1,), stride=(1,))
            )
            (norm): LayerNorm((576,), eps=1e-05, elementwise_affine=True)
            (unFold): Unfold(kernel_size=(3, 3), dilation=1, padding=1, stride=1)
          )
          (1): BB(
            (uk3_1): Sequential(
              (0): Conv2d(64, 64, kernel_size=(3, 3), stride=(1, 1), padding=(1, 1))
              (1): ELU(alpha=1.0)
            )
            (uk3_2): Sequential(
              (0): Conv2d(128, 64, kernel_size=(3, 3), stride=(1, 1), padding=(1, 1))
              (1): ELU(alpha=1.0)
            )
            (uk3_3): Sequential(
              (0): Conv2d(192, 64, kernel_size=(3, 3), stride=(1, 1), padding=(1, 1))
              (1): ELU(alpha=1.0)
            )
            (lk3_1): Sequential(
              (0): Conv2d(64, 64, kernel_size=(3, 3), stride=(1, 1), padding=(1, 1))
              (1): ELU(alpha=1.0)
            )
            (lk3_2): Sequential(
              (0): Conv2d(64, 64, kernel_size=(3, 3), stride=(1, 1), padding=(1, 1))
              (1): ELU(alpha=1.0)
            )
            (lk3_3): Sequential(
              (0): Conv2d(64, 64, kernel_size=(3, 3), stride=(1, 1), padding=(1, 1))
              (1): ELU(alpha=1.0)
            )
            (k1): Sequential(
              (0): Conv2d(256, 64, kernel_size=(1, 1), stride=(1, 1))
              (1): ELU(alpha=1.0)
            )
            (emha): EMHA(
              (reduction): Conv1d(576, 288, kernel_size=(1,), stride=(1,))
              (attend): Softmax(dim=-1)
              (toQKV): Linear(in_features=288, out_features=864, bias=False)
              (expansion): Conv1d(288, 576, kernel_size=(1,), stride=(1,))
            )
            (norm): LayerNorm((576,), eps=1e-05, elementwise_affine=True)
            (unFold): Unfold(kernel_size=(3, 3), dilation=1, padding=1, stride=1)
          )
          (2): BB(
            (uk3_1): Sequential(
              (0): Conv2d(64, 64, kernel_size=(3, 3), stride=(1, 1), padding=(1, 1))
              (1): ELU(alpha=1.0)
            )
            (uk3_2): Sequential(
              (0): Conv2d(128, 64, kernel_size=(3, 3), stride=(1, 1), padding=(1, 1))
              (1): ELU(alpha=1.0)
            )
            (uk3_3): Sequential(
              (0): Conv2d(192, 64, kernel_size=(3, 3), stride=(1, 1), padding=(1, 1))
              (1): ELU(alpha=1.0)
            )
            (lk3_1): Sequential(
              (0): Conv2d(64, 64, kernel_size=(3, 3), stride=(1, 1), padding=(1, 1))
              (1): ELU(alpha=1.0)
            )
            (lk3_2): Sequential(
              (0): Conv2d(64, 64, kernel_size=(3, 3), stride=(1, 1), padding=(1, 1))
              (1): ELU(alpha=1.0)
            )
            (lk3_3): Sequential(
              (0): Conv2d(64, 64, kernel_size=(3, 3), stride=(1, 1), padding=(1, 1))
              (1): ELU(alpha=1.0)
            )
            (k1): Sequential(
              (0): Conv2d(256, 64, kernel_size=(1, 1), stride=(1, 1))
              (1): ELU(alpha=1.0)
            )
            (emha): EMHA(
              (reduction): Conv1d(576, 288, kernel_size=(1,), stride=(1,))
              (attend): Softmax(dim=-1)
              (toQKV): Linear(in_features=288, out_features=864, bias=False)
              (expansion): Conv1d(288, 576, kernel_size=(1,), stride=(1,))
            )
            (norm): LayerNorm((576,), eps=1e-05, elementwise_affine=True)
            (unFold): Unfold(kernel_size=(3, 3), dilation=1, padding=1, stride=1)
          )
        )
        (fwd_cam): ModuleList(
          (0): CAM(
            (global_avg_pool): AdaptiveAvgPool2d(output_size=1)
            (fc1): Linear(in_features=64, out_features=4, bias=True)
            (fc2): Linear(in_features=4, out_features=64, bias=True)
          )
          (1): CAM(
            (global_avg_pool): AdaptiveAvgPool2d(output_size=1)
            (fc1): Linear(in_features=64, out_features=4, bias=True)
            (fc2): Linear(in_features=4, out_features=64, bias=True)
          )
          (2): CAM(
            (global_avg_pool): AdaptiveAvgPool2d(output_size=1)
            (fc1): Linear(in_features=64, out_features=4, bias=True)
            (fc2): Linear(in_features=4, out_features=64, bias=True)
          )
        )
      )
    )
    (ub): Upsample(scale_factor=4.0, mode=nearest)
    (u): OurUpSample(
      (U1): Sequential(
        (0): Conv2d(64, 1024, kernel_size=(3, 3), stride=(1, 1), padding=(1, 1))
        (1): PixelShuffle(upscale_factor=4)
        (2): BatchNorm2d(64, eps=1e-05, momentum=0.1, affine=True, track_running_stats=True)
        (3): ReLU()
      )
      (co1): Sequential(
        (0): Conv2d(64, 64, kernel_size=(1, 1), stride=(1, 1))
        (1): ELU(alpha=1.0)
      )
    )
    (k3): Sequential(
      (0): Conv2d(64, 64, kernel_size=(3, 3), stride=(1, 1), padding=(1, 1))
      (1): ELU(alpha=1.0)
    )
    (k3_1): Sequential(
      (0): Conv2d(64, 3, kernel_size=(3, 3), stride=(1, 1), padding=(1, 1))
      (1): ELU(alpha=1.0)
    )
  )
)
23-03-20 09:37:13.365 - INFO: Model [SRModel] is created.
23-03-20 09:37:13.365 - INFO: 
Testing [set5]...
23-03-20 09:37:14.004 - INFO: 0901x4
23-03-20 09:37:14.531 - INFO: 0902x4
23-03-20 09:37:15.137 - INFO: 0903x4
23-03-20 09:37:15.745 - INFO: 0904x4
23-03-20 09:37:16.280 - INFO: 0905x4
23-03-20 09:37:16.849 - INFO: 0906x4
…
